app/src/main/assets/model_l2_regularized.tflite (tflite, 3264 bytes, 3 tensors)

sequential_1/dense_1/BiasAdd/ReadVariableOp f2 [20]
000000 58 35 c4 b1 eb 37 6f af db b6 42 b1 a0 b9 b3 b4
       0.334 -0.1802 0.4949 -0.11615 -0.4285 -0.1643 -0.703 -0.2937
000010 3a 36 2a b6 d0 b7 aa 2c 0e 39 58 36 23 af f1 39
       0.3892 -0.3853 -0.4883 0.0729 0.632 0.3965 -0.1115 0.7427
000020 23 b2 55 b4 b7 a1 63 3b
       -0.1918 -0.2708 -0.01116 0.9233

sequential_1/dense_1/MatMul f2 [20, 2]
000000 b2 3d 65 41 04 37 e3 b0 4f c4 76 44 8d 37 db 2d
       1.424 2.697 0.4385 -0.1527 -4.31 4.46 0.472 0.0915
000010 34 ba a3 3e 0f 28 84 36 31 bd 7e 41 05 3a b4 44
       -0.7754 1.659 0.0317 0.4072 -1.298 2.746 0.7524 4.703
000020 c3 3c bc 38 fa c4 dc 40 9d ba d8 3f 16 c4 8b bd
       1.19 0.592 -4.977 2.43 -0.8267 1.961 -4.086 -1.386
000030 ec 3f e0 bc 6d 40 44 c4 f6 35 69 99 9b 40 4d bd
       1.98 -1.219 2.213 -4.266 0.3726 -0.002642 2.303 -1.325
000040 75 31 10 b5 ef bb 33 c0 2c c1 4d 45 d7 41 2e bf
       0.1705 -0.3164 -0.9917 -2.1 -2.586 5.3 2.92 -1.795

sequential_1/dense_2/MatMul f2 [3, 20]
000000 be 39 9d 32 52 3d 71 1b f3 b0 f9 2f 5a 3a 56 38
       0.718 0.2067 1.33 0.003633 -0.1547 0.1246 0.794 0.542
000010 78 ba 9e 37 45 2c 67 c4 d1 b6 f0 a8 21 b8 47 bb
       -0.8086 0.476 0.0667 -4.402 -0.426 -0.03857 -0.516 -0.9097
000020 fe 29 74 a8 d8 2c 69 bd 8e bb db 31 e4 38 43 29
       0.0468 -0.0348 0.0757 -1.353 -0.9443 0.183 0.6113 0.0411
000030 d6 3a 9e a7 3e 3c 67 c0 aa b7 03 3b b4 3a 9b ba
       0.8545 -0.02975 1.061 -2.201 -0.479 0.8765 0.838 -0.8257
000040 bb 40 2b c0 f2 35 2a 41 82 32 7e bf a8 38 f8 41
       2.365 -2.084 0.3716 2.582 0.2034 -1.873 0.582 2.984
000050 2c 35 10 b1 19 41 53 b5 ed b9 c6 b4 4a bc 54 3e
       0.3232 -0.1582 2.549 -0.3328 -0.7407 -0.2983 -1.072 1.582
000060 9a b9 2c bb 90 ba ab bd c3 40 9f b1 80 b7 34 41
       -0.7 -0.8965 -0.8203 -1.417 2.38 -0.1757 -0.4688 2.602
000070 94 9f 70 ba 51 c0 15 42
       -0.0074 -0.8047 -2.158 3.041
