app/src/main/assets/model_dropout.tflite (tflite, 3264 bytes, 3 tensors)

sequential_2/dense_1/BiasAdd/ReadVariableOp f2 [20]
000000 a2 ac 4c b5 d1 bc 7d a8 0d 32 6d b8 0c b8 5a b1
       -0.0724 -0.331 -1.204 -0.03506 0.1891 -0.553 -0.506 -0.1672
000010 e8 38 6a b0 b9 ae 43 b7 92 b7 4f b6 6e 30 13 b6
       0.6133 -0.138 -0.10504 -0.4539 -0.4731 -0.3943 0.1384 -0.3796
000020 4e 39 06 39 18 ac 9f bf
       0.663 0.628 -0.06396 -1.905

sequential_2/dense_1/MatMul f2 [20, 2]
000000 d9 31 0b 2f 04 c1 e8 3b 8b c3 ca 42 57 bb 21 3b
       0.1827 0.11005 -2.508 0.9883 -3.771 3.395 -0.9175 0.891
000010 8b 40 32 c0 f1 3c 3a c2 3c c4 25 3f f4 3d 53 40
       2.271 -2.098 1.235 -3.113 -4.234 1.786 1.488 2.162
000020 36 46 ac c1 4c 30 5c b2 ea b4 86 bc 4e c3 06 3e
       6.21 -2.836 0.1343 -0.1987 -0.3071 -1.131 -3.652 1.506
000030 2c c4 3f 3f fe 41 02 c2 e4 b0 36 3d cd c2 ab 3d
       -4.17 1.812 2.996 -3.004 -0.1528 1.303 -3.4 1.417
000040 07 46 ad c1 61 46 98 bf df ae 3c a6 91 c3 ef be
       6.027 -2.838 6.38 -1.898 -0.10736 -0.02435 -3.783 -1.733

sequential_2/dense_2/MatMul f2 [3, 20]
000000 51 ac a0 9d fa 41 c0 2b d8 ba 24 3c 92 24 3b 36
       -0.06744 -0.005493 2.988 0.06055 -0.8555 1.035 0.01785 0.3894
000010 95 c2 b8 32 cc b3 b3 21 2d 27 1f b7 07 34 ec 29
       -3.291 0.21 -0.2437 0.01113 0.02803 -0.445 0.2517 0.04626
000020 c4 c1 4b c2 c2 b3 6e 3e ef b3 73 98 2d 42 c2 2e
       -2.883 -3.146 -0.2424 1.607 -0.2479 -0.002172 3.088 0.1056
000030 17 bb 6c 3c 10 a8 4e 37 7d c2 e2 b2 93 b3 11 2a
       -0.886 1.105 -0.03174 0.4565 -3.244 -0.2151 -0.2367 0.0474
000040 b9 27 19 b5 f0 33 37 9f 9c c2 7d c2 6f b4 8b 3d
       0.03017 -0.3186 0.248 -0.007046 -3.305 -3.244 -0.277 1.386
000050 c2 b7 4a c0 aa be 5c ba 18 a4 eb 3d 46 c3 d7 3f
       -0.4849 -2.145 -1.666 -0.795 -0.01599 1.4795 -3.637 1.96
000060 81 ab 6d b2 93 a9 4e c2 38 c3 63 40 4b 37 da c1
       -0.05862 -0.2008 -0.04355 -3.152 -3.61 2.193 0.4558 -2.926
000070 8c a7 ae a6 82 b6 de b2
       -0.02948 -0.0261 -0.4067 -0.2146
