app/src/main/assets/model_baseline.tflite (tflite, 3236 bytes, 3 tensors)

sequential/dense_1/BiasAdd/ReadVariableOp f2 [20]
0	0xafd1	-0.12213
1	0xb00f	-0.1268
2	0x4249	3.143
3	0xb1cb	-0.181
4	0xaaaa	-0.05206
5	0x3b43	0.9077
6	0xb167	-0.1688
7	0x3980	0.6875
8	0x3081	0.1407
9	0xbb76	-0.9326
10	0x3d0a	1.26
11	0x3c9d	1.153
12	0x39e3	0.736
13	0xb3a9	-0.2394
14	0x3d05	1.255
15	0x37dd	0.4915
16	0xad34	-0.0813
17	0xbb2d	-0.897
18	0x405e	2.184
19	0x3036	0.1316

sequential/dense_1/MatMul f2 [20, 2]
0	0xc17f	-2.748
1	0x3a40	0.7812
2	0xc0c8	-2.39
3	0x39b9	0.7153
4	0x45ed	5.926
5	0x4430	4.188
6	0xc382	-3.754
7	0x39b3	0.7124
8	0x381d	0.514
9	0xb57e	-0.3433
10	0x4134	2.602
11	0xb387	-0.2352
12	0xb400	-0.25
13	0x2fbe	0.121
14	0xb5f9	-0.3733
15	0xc405	-4.02
16	0xc141	-2.627
17	0xb8e8	-0.6133
18	0xc244	-3.133
19	0x40c2	2.379
20	0x4337	3.607
21	0xb4ff	-0.3123
22	0x429a	3.3
23	0xb478	-0.2793
24	0x44e7	4.902
25	0xc0a1	-2.314
26	0xadd4	-0.09106
27	0x3686	0.4077
28	0x432d	3.588
29	0xb4a9	-0.2913
30	0x42f7	3.482
31	0xbdd6	-1.459
32	0xac75	-0.06964
33	0x2fc1	0.12115
34	0xc2cc	-3.398
35	0xc3d7	-3.92
36	0x4366	3.7
37	0x3d5d	1.341
38	0xbe33	-1.55
39	0xb87a	-0.5596

sequential/dense_2/MatMul f2 [3, 20]
0	0x3f76	1.865
1	0x3e0d	1.513
2	0x40b3	2.35
3	0x40a4	2.32
4	0x184c	0.002098
5	0xbdf6	-1.49
6	0xb615	-0.3801
7	0x3ec8	1.695
8	0x401a	2.05
9	0x4149	2.643
10	0xbff1	-1.985
11	0xbf39	-1.806
12	0xc301	-3.502
13	0xb4dc	-0.3037
14	0xbf7e	-1.873
15	0xc0f9	-2.486
16	0xb4bf	-0.2966
17	0xc397	-3.795
18	0xb85a	-0.544
19	0x3c42	1.064
20	0x4019	2.049
21	0x3ea9	1.665
22	0xb991	-0.696
23	0x40a8	2.328
24	0x19a9	0.002764
25	0xb986	-0.6904
26	0xb393	-0.2367
27	0xb763	-0.4617
28	0x3e10	1.516
29	0xc1a3	-2.818
30	0xbacc	-0.8496
31	0xba18	-0.7617
32	0xbd26	-1.287
33	0x371a	0.4438
34	0xb9a8	-0.707
35	0xbd39	-1.306
36	0xb178	-0.1709
37	0xc1a1	-2.814
38	0x3ca8	1.164
39	0x3892	0.5713
40	0xadd7	-0.09125
41	0xb6e8	-0.4316
42	0xad8b	-0.0866
43	0xb6e8	-0.4316
44	0x2d1a	0.0797
45	0xb818	-0.5117
46	0x3116	0.1589
47	0xb0fb	-0.1556
48	0xb557	-0.3337
49	0xace1	-0.07623
50	0xb866	-0.55
51	0xafcc	-0.1218
52	0x35f8	0.373
53	0xb6fa	-0.436
54	0xb48c	-0.2842
55	0x30c9	0.1495
56	0xb6f3	-0.4343
57	0x35da	0.3657
58	0x364a	0.393
59	0x3338	0.2256
