model_test/model.tflite (tflite, 2576 bytes, 5 tensors)

arith.constant f4 [1, 3]
1.0977147 -0.5145689 1.1742768
00000000: ea81 8c3f caba 03bf b44e 963f

arith.constant1 f4 [3, 20]
-1.5195644 -0.21162261 -0.019715339 -0.7826583 0.31907707 0.2579626 0.22126031 -0.13278536
-0.23051986 -0.18395527 -0.034027264 -0.25581998 -0.28972647 0.06157855 -0.43077207 -0.16135103
-0.07345953 -1.5278454 -0.3909863 0.027933711 -0.26096916 -0.2551188 -0.5079978 -0.010677403
-0.31129986 -0.017028462 0.48472625 0.19474314 0.005421909 -0.047117114 -0.22290674 -0.4569075
-0.37570155 -0.40578955 -0.081265986 -0.4374702 -0.32808048 0.2279083 -0.28071177 0.32945418
0.22734362 0.51105493 0.8044545 0.5353215 -0.41967022 -0.7744357 -1.2445269 -1.2749988
0.31655085 -0.23065911 -0.57754856 0.4816359 0.9176245 -1.45069 -0.39461848 -0.29734302
0.16163433 -0.42022333 -0.39304823 0.5357164
00000000: 1681 c2bf 99b3 58be 1082 a1bc 4b5c 48bf
00000010: 125e a33e ad13 843e 1092 623e e3f8 07be
00000020: 660d 6cbe c55e 3cbe 2c60 0bbd d6fa 82be
00000030: 0757 94be ca39 7c3d 288e dcbe 3439 25be
00000040: f371 96bd 7090 c3bf 5b2f c8be 3dd5 e43c
00000050: c09d 85be ee9e 82be 250c 02bf 46f0 2ebc
00000060: b262 9fbe 467f 8bbc 0a2e f83e bf6a 473e
00000070: 45aa b13b e0fd 40bd aa41 64be c8ef e9be
00000080: f45b c0be a6c3 cfbe c86e a6bd 18fc dfbe
00000090: 2afa a7be cb60 693e 74b9 8fbe 38ae a83e
000000a0: c4cc 683e 7fd4 023f bbf0 4d3f d40a 093f
000000b0: 04df d6be 6b41 46bf a84c 9fbf 2933 a3bf
000000c0: f412 a23e e731 6cbe 39da 13bf fb98 f63e
000000d0: 70e9 6a3f 36b0 b9bf 6f0b cabe 583d 98be
000000e0: 7883 253e 8327 d7be 9e3d c9be b624 093f

sequential_1/dense_1_2/BiasAdd/ReadVariableOp f4 [3]
0.7144169 -0.04107999 0.132192
00000000: 07e4 363f 7e43 28bd 575d 073e

sequential_1/dense_1/BiasAdd/ReadVariableOp f4 [20]
-1.2111899 0.35873836 0.43119916 -0.059497256 0.014129631 -0.03406773 -0.03217692 -0.52647114
-0.03703475 -0.13432659 0.032107417 -0.059748214 0.65087026 0.014639817 -0.21439876 0.15823136
-3.5078265e-05 0.2664465 -0.22958228 -0.18191339
00000000: 4508 9bbf 8eac b73e 23c6 dc3e 65b3 73bd
00000010: f87f 673c 9b8a 0bbd f2cb 03bd d0c6 06bf
00000020: c0b1 17bd e98c 09be 1183 033d 8bba 74bd
00000030: 6f9f 263f d8db 6f3c 598b 5bbe 6707 223e
00000040: 0021 13b8 ad6b 883e 9e17 6bbe 8147 3abe

sequential_1/dense_1/MatMul f4 [20, 2]
-1.2333937 -0.2136564 0.22258557 0.448847 -0.5279976 0.32585663 0.46822196 -0.8265703
-0.26619968 -0.5707146 0.3615577 1.0035186 -1.1766901 -0.14677589 1.0065577 1.2836764
0.24301273 -0.44094557 -0.117157765 -0.35324827 -0.6087484 -0.034481358 0.33929396 -0.60644525
0.42847636 0.7960427 -1.3977834 -0.10284284 -0.590144 0.41101885 -0.3638489 -0.19057928
0.0037110639 0.3941187 1.1811196 -0.6810552 -0.6244946 0.46165863 -0.49796325 -0.53287894
00000000: d8df 9dbf bec8 5abe 79ed 633e 46cf e53e
00000010: da2a 07bf aed6 a63e caba ef3e 1c9a 53bf
00000020: 534b 88be 5a1a 12bf 171e b93e 4c73 803f
00000030: c89d 96bf 6b4c 16be e2d6 803f 824f a43f
00000040: 54d8 783e 9ec3 e1be 69f0 efbd f5dc b4be
00000050: efd6 1bbf 533c 0dbd f0b7 ad3e ff3f 1bbf
00000060: 4161 db3e 74c9 4b3f 91ea b2bf 449f d2bd
00000070: ad13 17bf 1071 d23e 674a babe 3727 43be
00000080: 5235 733b edc9 c93e ed2e 973f a259 2ebf
00000090: e1de 1fbf 855e ec3e 0af5 febe c16a 08bf
