app/src/main/assets/before/model_dropout.tflite (tflite, 3264 bytes, 3 tensors)

sequential_2/dense_1/BiasAdd/ReadVariableOp f2 [20]
00000000: b937 91b2 c6b6 5c2c 5739 1cb7 21b5 d92e
00000010: 64b5 07bf 392f eeb5 86b5 a339 70b1 1db3
00000020: 2f37 aab5 2ab8 de33
0.4827 -0.2052 -0.4233 0.0681 0.6675 -0.4443 -0.3206 0.107
-0.337 -1.757 0.11285 -0.3706 -0.3452 0.7046 -0.1699 -0.2223
0.449 -0.354 -0.5205 0.2458

sequential_2/dense_1/MatMul f2 [20, 2]
00000000: 8745 04be e43d 4b40 9ac3 263e 873f 3dc0
00000010: 7545 1fc1 12c4 653e 27c2 053d bab3 283d
00000020: 40c3 d13d 18c3 64be 5eb3 263d e241 b4c1
00000030: fdc2 e93d c545 bbc1 a935 dfb1 1637 0db4
00000040: a143 3fbf efc2 703d 483d 12c2 95aa b13a
5.527 -1.504 1.473 2.146 -3.8 1.537 1.882 -2.12
5.457 -2.56 -4.07 1.599 -3.076 1.255 -0.2415 1.289
-3.625 1.454 -3.547 -1.598 -0.2302 1.287 2.941 -2.852
-3.494 1.478 5.77 -2.865 0.3538 -0.1835 0.4429 -0.2532
3.814 -1.812 -3.467 1.359 1.32 -3.035 -0.05142 0.8364

sequential_2/dense_2/MatMul f2 [3, 20]
00000000: 7fc2 0436 ff27 28bb cfc1 5625 8b25 9d34
00000010: e625 de3e 8534 2926 3227 cdc1 60b2 5436
00000020: b4bf 4896 a03c 6031 e325 b63f 64c2 f9b0
00000030: b821 dbc2 2ec1 b42e 19c2 1eb4 8930 a140
00000040: f3c1 38a0 c1b5 a4b7 56a9 c9c1 1b3e faac
00000050: 31c3 5b36 e320 e9ba 73c2 6123 dd21 1634
00000060: e428 e53d 5d34 c62d b11b 05c3 59a8 a137
00000070: ebc0 6aa5 4c3d be31
-3.248 0.376 0.03123 -0.8945 -2.904 0.02084 0.02165 0.2883
0.02304 1.717 0.2825 0.02406 0.0281 -2.9 -0.1992 0.3955
-1.926 -0.0015335 1.156 0.168 0.023 1.928 -3.195 -0.1554
0.01117 -3.428 -2.59 0.10474 -3.049 -0.2573 0.1417 2.314
-2.975 -0.00824 -0.3596 -0.4775 -0.0417 -2.893 1.526 -0.07776
-3.596 0.3972 0.009544 -0.864 -3.225 0.01441 0.01145 0.2554
0.0382 1.474 0.2727 0.0902 0.003756 -3.51 -0.03397 0.4768
-2.459 -0.02115 1.324 0.1794
