app/src/main/assets/before/model_baseline.tflite (tflite, 3236 bytes, 3 tensors)

sequential/dense_1/BiasAdd/ReadVariableOp f2 [20]
00000000: 5d1e eb2f a82d bd2c 50c0 b238 b934 29bd
00000010: ca39 adbf e9b9 a62f 75b8 7eb6 a022 55b4
00000020: a7b2 6ab4 d22f fa3a
0.006214 0.1237 0.0884 0.07404 -2.156 0.587 0.2952 -1.29
0.7236 -1.919 -0.739 0.1195 -0.557 -0.4058 0.01294 -0.2708
-0.2079 -0.276 0.1222 0.872

sequential/dense_1/MatMul f2 [20, 2]
00000000: edc1 c83d 8dbb 243c 17b9 b139 ff32 a6b0
00000010: ecc3 f7c0 2e45 e8b8 45c0 ca40 00c0 6345
00000020: bb41 0c3a 24c3 3bc0 e945 0fc6 0cbb d53b
00000030: 3938 45c5 1ec1 ccb6 c9ba c238 c1b6 1244
00000040: 53b6 3242 93b8 d0c3 90bb 1f3c 6045 92c3
-2.963 1.445 -0.944 1.035 -0.636 0.7114 0.2186 -0.1453
-3.96 -2.482 5.18 -0.6133 -2.135 2.395 -2.0 5.387
2.865 0.756 -3.57 -2.115 5.91 -6.06 -0.881 0.979
0.528 -5.27 -2.559 -0.4248 -0.848 0.5947 -0.422 4.07
-0.3953 3.098 -0.572 -3.906 -0.9453 1.03 5.375 -3.785

sequential/dense_2/MatMul f2 [3, 20]
00000000: 83be 4738 a938 a7b0 5940 cdb7 1d40 f940
00000010: 41b8 ec3f 05c2 9639 1642 0529 c6b7 86c0
00000020: 4abf 11c0 d236 d4c2 0340 2cb8 70b8 7830
00000030: a541 bcbe d0bf 463e 373e e240 55c6 52b9
00000040: f6bf 37bd fe38 6139 0b39 513e ccb6 683d
00000050: e6b4 ac35 66a8 9731 05b3 bfa9 f7b7 e0b5
00000060: 1118 5235 31ac f327 ab2a a9b4 5230 e92a
00000070: 2336 7430 8db6 78b7
-1.628 0.5347 0.5825 -0.1454 2.174 -0.4875 2.057 2.486
-0.5317 1.98 -3.01 0.698 3.043 0.0392 -0.4858 -2.262
-1.822 -2.033 0.4263 -3.414 2.006 -0.5215 -0.5547 0.1396
2.822 -1.684 -1.953 1.568 1.554 2.441 -6.332 -0.665
-1.99 -1.304 0.624 0.6724 0.6304 1.579 -0.4248 1.352
-0.3062 0.3545 -0.03436 0.1747 -0.2194 -0.0449 -0.4978 -0.3672
0.001986 0.3325 -0.0655 0.03105 0.0521 -0.2913 0.135 0.054
0.3835 0.1392 -0.4094 -0.4668
